Network/checkpoint.pth (torch_old, 4904 bytes, 2 tensors)

weight f4 [1, 15]
000000 9c 8a de be 3a 9d c9 40 91 f2 c0 bf 81 41 3b c1
       -0.43465126 6.3004427 -1.5074025 -11.703492
000010 42 40 8b be b0 bb ad 3e 90 1b 55 40 3d 7a 2b 3e
       -0.27197462 0.33932257 3.3298073 0.16745849
000020 44 3b 14 3f 2b 00 0c bd 7f ea 99 3e 66 ff 91 40
       0.5790293 -0.034179848 0.3006172 4.5624266
000030 6b 41 fc 3e 34 fc 15 bf 81 72 ad bd
       0.4926866 -0.58587956 -0.084691055

weight f4 [1, 15]
000000 1a f7 f9 bf 9a 74 d7 be 1e 90 d9 3d 17 e1 cb 3f
       -1.9528534 -0.42081147 0.10623191 1.5928067
000010 43 9a a0 40 a3 a5 b6 3f b6 a6 8f 40 76 c8 3a 40
       5.018831 1.4269298 4.4891005 2.9184852
000020 30 76 71 41 34 e6 45 c0 97 09 80 3f 86 10 08 41
       15.091354 -3.0921755 1.0002927 8.504034
000030 82 11 63 3f 65 fa e4 41 2d df f0 40
       0.8869859 28.622263 7.527243
