Network/checkpoint.pth (torch_old, 12292 bytes, 10 tensors)

weight f4 [15, 25]
0.07775975 0.106603675 -0.1518921 -0.120110765 0.018407144 -0.012998022 -0.008103512 0.14848177
-0.025360502 0.092733465 0.08975346 -0.15260498 0.114918135 -0.15260616 0.01647953 0.17136611
-0.19780509 -0.00915473 0.03036798 -0.076428324 -0.18419833 -0.17509846 -0.081849515 0.12831037
0.02206961 -0.18834975 0.022717722 0.060960956 0.08938017 -0.008565299 -0.06795838 0.11953678
-0.19241802 0.124924205 0.10089015 -0.0035229994 -0.018665262 -0.16127773 0.050857 -0.101363145
-0.14942896 0.14293076 0.045054995 0.09796166 -0.016748719 0.16711311 -0.0596352 -0.052595027
0.13437606 0.07124806 -0.07052239 0.04694388 0.1767988 -0.16294822 0.015390493 0.19287242
0.060297035 -0.024516053 -0.011323921 -0.06231024 0.18736522 0.1239241 0.035270862 0.13313676
-0.067594774 -0.15235916 0.16704647 0.009757914 0.15016635 -0.19519329 0.15847449 -0.050409816
0.16421975 0.040287144 0.07026104 0.07959277 0.18396546 0.072497405 -0.09090061 -0.0030587092
-0.15967393 0.107749484 0.07256784 0.09251883 0.14080541 0.12400944 0.17073981 -0.1559026
0.029459842 0.1118286 -0.111052595 -0.08047132 -0.10318361 -0.18642269 -0.08160532 -0.061408076
-0.09338064 0.029189698 0.052671276 -0.02314172 -0.10348786 -0.040587224 0.0005790369 0.16428883
0.061494935 0.12984289 0.09266081 -0.13193221 -0.06905476 0.12047269 0.049697913 0.10432663
-0.08023066 -0.1078119 0.15271954 0.12980317 0.085640185 -0.03923083 -0.16506545 -0.02633088
0.14786534 -0.074787445 0.07445551 -0.1772667 -0.18333378 -0.16654532 -0.1813563 -0.043562286
-0.06685119 -0.1379515 0.04129318 -0.06460989 -0.036231615 -0.19275129 -0.16284683 -0.006115429
0.067412 0.050769396 0.00030627113 -0.011249743 -0.18264289 -0.1682121 -0.15046556 -0.18359716
0.08279919 -0.1609321 0.035187803 -0.2010682 0.044939063 0.16139616 0.01703211 -0.17734309
0.19297673 -0.0834781 0.050181888 -0.19203399 -0.06238513 0.021454535 -0.1952974 0.16443317
0.18141879 0.0029400215 0.029340021 0.14402892 0.059146725 -0.19470607 -0.18316181 -0.12519798
-0.05982951 -0.021461286 0.13243122 0.042061947 0.17128746 -0.06223877 0.19567664 0.02671852
-0.13903007 0.122105755 -0.20147093 -0.09263479 -0.18408397 0.09491756 0.01899419 -0.12284681
0.1954007 0.024563156 -0.17929974 0.021643437 -0.03265304 0.13593437 0.20047645 0.075468205
-0.19300257 -0.075450934 -0.02684506 0.18877114 -0.054127894 -0.010445438 -0.059899293 0.039144985
0.17908497 0.097989626 0.12001749 0.10285369 0.032023348 -0.0028294695 -0.055300094 0.01193399
0.028098531 -0.17787376 0.12655573 -0.03057752 -0.018102147 0.18347679 -0.081102744 0.047695167
0.093608744 0.0117505565 -0.09610787 -0.0053798333 -0.15419605 0.1653813 -0.09808046 -0.010328539
-0.14684999 0.0009123606 -0.15119867 -0.06432683 0.08520735 0.12781163 0.1290869 0.0108992085
-0.005867876 0.021223448 -0.07342905 -0.05022096 0.10504771 0.16994281 -0.014017157 -0.147239
-0.095322534 -0.063506804 -0.16606578 -0.08151518 -0.17082162 0.094229095 -0.080587804 -0.17263372
-0.039221175 -0.073102675 0.17865281 -0.10184439 0.15004627 -0.16827968 -0.19133118 0.051015876
00000000: 8140 9f3d 0753 da3d 9a89 1bbe a2fc f5bd
00000010: 94ca 963c a8f5 54bc 98c4 04bc 9b0b 183e
00000020: d4c0 cfbc 0beb bd3d a9d0 b73d 7b44 1cbe
00000030: 335a eb3d ca44 1cbe 1400 873c 997a 2f3e
00000040: 6b8d 4abe b8fd 15bc 45c6 f83c 7486 9cbd
00000050: 7d9e 3cbe 034d 33be b8a0 a7bd cb63 033e
00000060: 54cb b43c c2de 40be 841a ba3c 32b2 793d
00000070: f30c b73d 7855 0cbc c32d 8bbd b3cf f43d
00000080: 3b09 45be 43d8 ff3d 7f9f ce3d 1fe2 66bb
00000090: e4e7 98bc fd25 25be 6e4f 503d 7b97 cfbd
000000a0: e803 19be 715c 123e 968b 383d 1fa0 c83d
000000b0: 9c34 89bc b31f 2b3e 0a44 74bd e26d 57bd
000000c0: e199 093e 81ea 913d 0b6e 90bd 3a48 403d
000000d0: bf0a 353e e6db 26be 6828 7c3c 5980 453e
000000e0: 06fa 763d e4d5 c8bc f887 39bc 0639 7fbd
000000f0: abdc 3f3e ebcb fd3d 2e78 103d 0155 083e
00000100: 216f 8abd 0a04 1cbe 3b0e 2b3e a8df 1f3c
00000110: 35c5 193e c0e0 47be 2347 223e 867a 4ebd
00000120: 3929 283e 2204 253d 05e5 8f3d 8901 a33d
00000130: 7161 3c3e 8579 943d 192a babd a074 48bb
00000140: 9081 23be c3ab dc3d 739e 943d 837a bd3d
00000150: 4b2f 103e a9f8 fd3d 6bd6 2e3e eea4 1fbe
00000160: c455 f13c 6506 e53d 8b6f e3bd 26ce a4bd
00000170: ee51 d3bd 97e5 3ebe b120 a7bd 0987 7bbd
00000180: 593e bfbd 3c1f ef3c d6bd 573d b493 bdbc
00000190: 71f1 d3bd ca3e 26bd 82ca 173a 553b 283e
000001a0: 1de2 7b3d 89f5 043e f3c4 bd3d 3d19 07be
000001b0: 956c 8dbd 63ba f63d 0a90 4b3d 33a9 d53d
000001c0: f94f a4bd 7ccc dcbd 8362 1c3e 1feb 043e
000001d0: 1f64 af3d 82b0 20bd eb06 29be dcb3 d7bc
000001e0: 036a 173e 292a 99bd 217c 983d 6785 35be
000001f0: dabb 3bbe db8a 2abe 77b5 39be 5e6e 32bd
00000200: 47e9 88bd 2843 0dbe 0a23 293d 3152 84bd
00000210: 9a67 14bd 9860 45be 52c1 26be f063 c8bb
00000220: 4d0f 8a3d 92f3 4f3d 0493 a039 d850 38bc
00000230: bd06 3bbe cb3f 2cbe a513 1abe e500 3cbe
00000240: 9f92 a93d 62cb 24be 1621 103d d2e4 4dbe
00000250: 0612 383d 0945 253e ec86 8b3c 6d99 35be
00000260: b19b 453e 91f6 aabd 868b 4d3d 8fa4 44be
00000270: 8d87 7fbd 6cc1 af3c 0bfc 47be 2b61 283e
00000280: d9c5 393e 60ad 403b 7c5a f03c 517c 133e
00000290: d643 723d 0761 47be c58e 3bbe e633 00be
000002a0: ca0f 75bd 94cf afbc 0d9c 073e 2649 2c3d
000002b0: fb65 2f3e 15ee 7ebd 755f 483e cce0 da3c
000002c0: e65d 0ebe 9512 fa3d 654e 4ebe 4fb7 bdbd
000002d0: 8280 3cbe 2364 c23d b499 9b3c 1c97 fbbd
000002e0: 1f17 483e ac38 c93c 5a9a 37be 944d b13c
000002f0: 32bf 05bd 6132 0b3e b349 4d3e 138f 9a3d
00000300: 77a2 45be 0586 9abd 2cea dbbc 394d 413e
00000310: 36b5 5dbd 5823 2bbc f658 75bd 7e56 203d
00000320: 0d62 373e c9ae c83d bbcb f53d f5a4 d23d
00000330: ea2a 033d 9f6e 39bb 5a82 62bd c886 433c
00000340: e42e e63c 8a24 36be d397 013e b57d fabc
00000350: f44a 94bc 57e1 3b3e 3219 a6bd 025c 433d
00000360: f1b5 bf3d 6885 403c 34d4 c4bd 5049 b0bb
00000370: 92e5 1dbe b759 293e 69de c8bd 0839 29bc
00000380: d85f 16be 7c2b 6f3a d3d3 1abe c9bd 83bd
00000390: 3181 ae3d 0de1 023e 5b2f 043e 9892 323c
000003a0: 5047 c0bb ccdc ad3c f861 96bd 7eb4 4dbd
000003b0: 4123 d73d 7d05 2e3e 38a8 65bc d2c5 16be
000003c0: 7638 c3bd db0f 82bd 260d 2abe 6ef1 a6bd
000003d0: ddeb 2ebe 2ffb c03d 380b a5bd e5c6 30be
000003e0: 62a6 20bd dbb6 95bd c3f0 363e cb93 d0bd
000003f0: bba5 193e 8251 2cbe 52ec 43be 06f6 503d

bias f4 [15]
0.10363307 -0.08457052 0.031960256 -0.1496119 -0.066954084 -0.11776865 0.16647328 0.16029994
-0.14198497 0.06689418 -0.0133970305 -0.1105458 0.026676677 0.09441426 -0.12703605
00000000: 933d d43d 4f33 adbd c2e8 023d dd33 19be
00000010: 391f 89bd b130 f1bd f977 2a3e ab25 243e
00000020: 8264 11be d1ff 883d 387f 5bbc d665 e2bd
00000030: 0c89 da3c 435c c13d bd15 02be

weight f4 [15, 25]
-0.034145065 -0.14659758 -0.12460012 0.12610875 0.081781976 0.030249128 0.10232433 0.18598141
0.1855217 0.046569414 0.091617875 0.06646279 -0.1172939 -0.10494059 0.048371546 0.12164011
0.15516551 -0.12942317 -0.00973729 0.05922761 -0.19331236 0.13588251 -0.040628426 0.08271793
0.04252816 0.12484629 0.14576687 -0.08302315 0.0050660744 -0.17240472 0.07367373 0.18046428
0.12996887 0.1913866 0.05911257 -0.13241532 0.14583863 -0.049168147 0.041337453 0.10000075
0.07426257 -0.19299105 0.021229811 0.06879973 -0.013074212 -0.14010942 0.09115329 0.060302265
-0.13021612 -0.057110466 -0.1946113 -0.14225586 0.19316973 0.050414883 0.016163744 -0.14942536
-0.103460975 -0.0028377098 0.18973823 0.18352704 0.029003032 -0.15866718 0.14017226 -0.09288002
-0.09141204 0.14831664 0.18401395 0.07626068 -0.10303512 -0.13523906 -0.01179456 -0.06664441
0.04443177 -0.0023255122 -0.055811875 -0.070652805 -0.09247943 -0.068683304 0.051620997 -0.19475341
-0.15124126 -0.18796313 -0.17725264 -0.1645705 -0.028961621 0.07609155 0.06625096 0.12454661
-0.08521601 -0.11626028 -0.06715027 -0.11186255 -0.10603921 0.13390301 0.05058401 0.116217636
-0.18200043 0.06341549 -0.023962937 0.17673446 -0.0030728949 0.19379319 -0.1801517 -0.09100472
-0.10678385 0.16789587 -0.12830937 -0.09961552 -0.15177624 0.15646555 0.089823015 0.064269476
-0.15717821 -0.12717928 0.14661299 -0.14487776 -0.1311683 0.18434016 -0.13778123 0.101665385
-0.18736403 -0.0054292306 0.14473511 0.10867419 0.077811845 -0.031864636 -0.08379532 -0.096400544
-0.0026163233 0.0015598608 0.09580981 0.13296308 -0.06082972 -0.20185785 -0.11168367 -0.0839452
-0.19277346 -0.10888488 0.16936259 -0.014570735 0.14850427 0.04080466 0.09147068 0.09471012
0.1469727 0.11955201 0.14865829 0.006885968 0.061475165 0.013127856 -0.07431387 -0.1501013
0.072246544 -0.088377535 -0.07037362 0.18852384 -0.14863653 -0.019279175 -0.09323322 -0.03674098
0.05031895 -0.06135491 -0.15093839 -0.1798055 -0.19759165 -0.16083363 -0.15304928 0.09693175
-0.022946961 0.18096398 -0.18657778 -0.1024654 -0.16527478 -0.06335219 -0.032295845 -0.1821368
-0.09649276 -0.05093213 -0.044615768 0.00632187 -0.020647027 0.067406304 -0.13319595 -0.07674035
-0.19283436 0.020023905 0.08155706 -0.01684039 -0.07511654 0.11656264 0.10309789 -0.18895261
0.19266959 -0.08446984 0.08285988 -0.04444588 -0.093106024 0.027798124 0.19618522 -0.13451236
0.19782712 -0.19423302 0.0039600506 -0.09177925 -0.018963225 -0.0011182202 -0.028925471 0.09817719
0.08637143 -0.10644574 -0.13989893 0.13270302 0.18792905 -0.016210474 -0.15843709 -0.14084569
0.08267071 -0.1764971 -0.106086366 0.030629598 -0.15120056 -0.016887106 -0.17301932 -0.1093954
0.021049775 0.010262273 0.053803824 0.122781284 -0.15799506 0.093554534 -0.019435532 -0.11257881
-0.09793779 -0.046111427 0.047329403 0.075402595 -0.17281882 -0.044754483 0.0028769744 0.15522023
-0.07225197 -0.06507828 0.016914122 -0.107024856 0.044668235 -0.17075685 -0.08236322 -0.05712221
-0.09152944 -0.056544714 -0.032377847 0.10383176 0.06669668 0.14752139 -0.087096654 0.110294856
00000000: b2db 0bbd ad1d 16be 592e ffbd a722 013e
00000010: 4f7d a73d 05cd f73c 6b8f d13d e971 3e3e
00000020: 67f9 3d3e 92bf 3e3d 27a2 bb3d a51d 883d
00000030: c937 f0bd 18eb d6bd 3e21 463d 731e f93d
00000040: b5e3 1e3e 8287 04be 2889 1fbc a698 723d
00000050: adf3 45be c924 0b3e fe69 26bd 0568 a93d
00000060: 0232 2e3d 69af ff3d e943 153e 0b08 aabd
00000070: 5001 a63b dd8a 30be 41e2 963d a1cb 383e
00000080: 8f16 053e d9fa 433e 0620 723d e297 07be
00000090: b956 153e 8a64 49bd 7651 293d 31cd cc3d
000000a0: f916 983d 729f 45be 24ea ad3c dfe6 8c3d
000000b0: 3835 56bc d878 0fbe 93ae ba3d 82ff 763d
000000c0: 6057 05be aaec 69bd 2f48 47be 85ab 11be
000000d0: 49ce 453e d67f 4e3d d469 843c f602 19be
000000e0: 59e3 d3bd dff8 39bb bd4a 423e 83ee 3b3e
000000f0: c497 ed3c a679 22be 5189 0f3e e137 bebd
00000100: 3c36 bbbd 51e0 173e 276e 3c3e 8f2e 9c3d
00000110: 1404 d3bd 1c7c 0abe f83d 41bc dd7c 88bd
00000120: 16fe 353d 9f67 18bb fe9a 64bd 6bb2 90bd
00000130: db65 bdbd d5a9 8cbd 8a70 533d 706d 47be
00000140: fdde 1abe 6879 40be b781 35be 2b85 28be
00000150: ec40 edbc e3d5 9b3d 95ae 873d 4b12 ff3d
00000160: bb85 aebd df19 eebd 1586 89bd 3118 e5bd
00000170: 162b d9bd df1d 093e 2e31 4f3d 8303 ee3d
00000180: 525e 3abe fbdf 813d ec4d c4bc e1f9 343e
00000190: 9f62 49bb b971 463e b079 38be af60 babd
000001a0: 7eb1 dabd e5ec 2b3e 8863 03be 3903 ccbd
000001b0: 3b6b 1bbe 8138 203e 21f5 b73d b79f 833d
000001c0: 53f3 20be 493b 02be b721 163e d65a 14be
000001d0: fc50 06be abc3 3c3e 8616 0dbe f135 d03d
000001e0: 5bdc 3fbe b0e7 b1bb 7135 143e 9390 de3d
000001f0: d15b 9f3d 7e84 02bd e19c abbd a66d c5bd
00000200: 9f76 2bbb 3e74 cc3a ef37 c43d 7927 083e
00000210: 9628 79bd d3b3 4ebe 68ba e4bd 76eb abbd
00000220: 6866 45be 09ff debd 636d 2d3e 18ba 6ebc
00000230: 8111 183e ca22 273d fb54 bb3d 61f7 c13d
00000240: 0380 163e afd7 f43d e139 183e b0a3 e13b
00000250: 62cd 7b3d 3816 573c df31 98bd 28b4 19be
00000260: fff5 933d 48ff b4bd 0b20 90bd 650c 413e
00000270: 2d34 18be 5cef 9dbc 0ff1 bebd b67d 16bd
00000280: 3e1b 4e3d 494f 7bbd 988f 1abe ef1e 38be
00000290: 7755 4abe 92b1 24be f3b8 1cbe 2784 c63d
000002a0: 44fb bbbc 9f4e 393e 3f0e 3fbe 61d9 d1bd
000002b0: cb3d 29be cbbe 81bd a648 04bd 1282 3abe
000002c0: ff9d c5bd 369e 50bd 06bf 36bd b027 cf3b
000002d0: f423 a9bc 510c 8a3d 8564 08be 0b2a 9dbd
000002e0: 5f76 45be 2c09 a43c 6307 a73d dcf4 89bc
000002f0: b3d6 99bd 65b8 ee3d fd24 d33d cb7c 41be
00000300: 2d4b 453e 86fe acbd 71b2 a93d e20c 36bd
00000310: 5fae bebd e4b8 e33c c7e4 483e 9cbd 09be
00000320: 3193 4a3e 05e5 46be 50c3 813b c2f6 bbbd
00000330: c458 9bbc 3e91 92ba 1cf5 ecbc 1f11 c93d
00000340: 81e3 b03d 3900 dabd aa41 0fbe 4de3 073e
00000350: 7970 403e d4cb 84bc 553d 22be da39 10be
00000360: 434f a93d a8bb 34be cf43 d9bd ecea fa3c
00000370: 52d4 1abe d456 8abc fa2b 31be b20a e0bd
00000380: 9470 ac3c 1823 283c 6661 5c3d c174 fb3d
00000390: 75c9 21be 8599 bf3d 4437 9fbc b88f e6bd
000003a0: 9c93 c8bd 56df 3cbd 7adc 413d ad6c 9a3d
000003b0: 6bf7 30be 7a50 37bd 9f8b 3c3b 0df2 1e3e
000003c0: d7f8 93bd c347 85bd 7c8f 8a3c d92f dbbd
000003d0: 0af6 363d e2da 2ebe 0cae a8bd faf8 69bd
000003e0: c973 bbbd 6e9b 67bd a29e 04bd bfa5 d43d
000003f0: 4598 883d d90f 173e bb5f b2bd 45e2 e13d

bias f4 [15]
0.041995067 -0.12429567 0.0125520695 -0.15052636 -0.0021822024 0.13709033 -0.13524519 -0.042233396
-0.12238419 0.023835165 -0.043956954 -0.17987588 0.18351743 -0.020492507 0.18288356
00000000: 0503 2c3d ba8e febd 32a7 4d3c 9523 1abe
00000010: 4803 0fbb 6861 0c3e b77d 0abe edfc 2cbd
00000020: 90a4 fabd f741 c33c 350c 34bd 6231 38be
00000030: feeb 3b3e e7df a7bc d445 3b3e

weight f4 [5, 15]
-0.023158677 0.21411532 0.25960475 0.09635428 0.0024193896 -0.09740559 0.14467716 0.15263638
-0.02176059 -0.14899619 -0.2487943 0.16234484 -0.084864475 0.215081 0.122441135 -0.057258062
0.16934437 0.20326886 0.08782596 0.014164366 -0.061405454 -0.25012454 -0.09196227 -0.14389107
-0.04470917 -0.036428325 0.0937142 -0.21983925 -0.047626905 0.18482453 0.10421426 0.057362862
-0.0026040447 -0.052074783 0.23085424 -0.14128003 -0.17297623 0.1640538 -0.034854956 -0.16622636
-0.09636586 0.011149488 -0.15371025 0.22176507 -0.06931498 0.127976 0.032823823 -0.25602224
-0.24251057 0.16243502 0.045699604 0.12108403 0.100514404 0.044462062 -0.22388718 0.14621294
-0.0010108576 0.1285572 0.026967011 0.10203231 -0.1378366 0.017608963 -0.11102439 0.21539569
-0.20773716 -0.08446673 -0.008257709 0.22652793 -0.20629652 -0.24569887 -0.1815127 0.20172885
0.17047256 -0.20018019 -0.055620737
00000000: 44b7 bdbc 0c41 5b3e eaea 843e 6555 c53d
00000010: 9f8e 1e3b 957c c7bd 4026 143e b64c 1c3e
00000020: 4443 b2bc 7592 18be efc3 7ebe ba3d 263e
00000030: 6dcd adbd 323e 5c3e 6bc2 fa3d 6e87 6abd
00000040: 9c68 2d3e b625 503e 19de b33d a811 683c
00000050: 4984 7bbd 5310 80be b756 bcbd 2e58 13be
00000060: f620 37bd de35 15bd 3bed bf3d 8a1d 61be
00000070: 6e14 43bd a442 3d3e 496e d53d 52f5 6a3d
00000080: 9fa8 2abb 5e4c 55bd 0e65 6c3e b6ab 10be
00000090: ae20 31be b8fd 273e 12c4 0ebd 3e37 2abe
000000a0: 775b c5bd 58ac 363c 3866 1dbe 6216 633e
000000b0: 03f5 8dbd 240c 033e 4672 063d 5915 83be
000000c0: b154 78be 5e55 263e 822f 3b3d e7fa f73d
000000d0: 7fda cd3d da1d 363d ae42 65be d8b8 153e
000000e0: c17e 84ba 80a4 033e ece9 dc3c 51f6 d03d
000000f0: 0a25 0dbe ac40 903c c160 e3bd b090 5c3e
00000100: 0db9 54be e5fc acbd 584b 07bc f0f6 673e
00000110: 653f 53be 7c98 7bbe 77de 39be 0292 4e3e
00000120: 5c90 2e3e 09fc 4cbe 92d2 63bd

bias f4 [5]
-0.024787895 0.24637827 0.013579346 0.059303723 -0.15055636
00000000: fc0f cbbc 964a 7c3e e87b 5e3c 76e8 723d
00000010: 722b 1abe

weight f4 [5, 15]
-0.048777096 -0.028232329 0.012024187 -0.23535083 -0.05380214 -0.0019248949 0.19696313 -0.06146448
-0.12685089 -0.026967533 0.18506011 -0.23289013 -0.14649475 0.18952489 -0.12845545 -0.2018933
0.24105081 -0.057271756 -0.24070656 0.012117662 0.026316218 0.08736815 -0.11481828 0.16173169
0.19905257 0.002874218 0.061349872 -0.06406621 0.24444178 0.0739641 0.25690627 -0.018688835
-0.04594045 0.11070744 -0.0036781502 0.020569779 -0.056701444 -0.24765164 -0.09451606 -0.2544492
-0.16953975 0.10901313 0.24465743 0.091265924 -0.02362623 -0.10805064 -0.01605875 -0.14837351
0.21819839 0.07235066 -0.14140558 -0.12741601 0.09978702 -0.13456453 0.20900562 -0.03664381
-0.21314697 -0.2115407 0.12508345 0.027081497 -0.055959694 -0.04386478 0.2563516 0.16422483
0.032446675 0.124543555 0.15809241 0.17329952 -0.15265103 0.015653811 -0.088193364 0.1266774
0.08761383 0.16892701 -0.2427604
00000000: 7eca 47bd 7c47 e7bc 1801 453c cfff 70be
00000010: a25f 5cbd c14c fcba b4b0 493e 2ec2 7bbd
00000020: 33e5 01be 04eb dcbc 6680 3d3e c07a 6ebe
00000030: b802 16be d012 423e d389 03be 1ebd 4ebe
00000040: 06d6 763e ca95 6abd c87b 76be 2889 463c
00000050: 1c95 d73c 13ee b23d d925 ebbd fe9c 253e
00000060: 70d4 4b3e 605d 3c3b 014a 7b3d 2535 83bd
00000070: f24e 7a3e 7d7a 973d 3889 833e 5419 99bc
00000080: 0e2c 3cbd 95ba e23d 1f0d 71bb f481 a83c
00000090: c63f 68bd 6498 7dbe a391 c1bd 2a47 82be
000000a0: d49b 2dbe 4742 df3d 7a87 7a3e a1e9 ba3d
000000b0: cc8b c1bc a749 ddbd a48d 83bc 3aef 17be
000000c0: 666f 5f3e 952c 943d a0cc 10be 5879 02be
000000d0: 235d cc3d 49cb 09be 9205 563e d217 16bd
000000e0: 3343 5abe 209e 58be e015 003e 04da dd3c
000000f0: fe35 65bd 8eab 33bd 8440 833e 8e2a 283e
00000100: cee6 043d b110 ff3d fae2 213e 6e75 313e
00000110: 8d50 1cbe 6c3c 803c b99e b4bd b8b7 013e
00000120: e16e b33d 34fb 2c3e 2f96 78be

bias f4 [5]
-0.10300173 -0.110384 -0.14659916 0.16099201 -0.22200589
00000000: 92f2 d2bd 0211 e2bd 171e 16be 17db 243e
00000010: 8355 63be

weight f4 [1, 5]
0.32240948 0.14691806 0.3175747 -0.036926918 -0.11928373
00000000: db12 a53e b071 163e 2799 a23e ae40 17bd
00000010: 074b f4bd

weight f4 [1, 5]
-0.3346158 0.379437 -0.26963687 0.2299884 -0.34387097
00000000: c352 abbe 9145 c23e d80d 8abe 1482 6b3e
00000010: db0f b0be
